…
2021-12-14 13:43:13.181689: I tensorflow/core/common_runtime/gpu/gpu_device.cc:1118] 0:   N 
2021-12-14 13:43:13.181968: I tensorflow/core/common_runtime/gpu/gpu_device.cc:1244] Created TensorFlow device (/job:localhost/replica:0/task:0/device:GPU:0 with 7472 MB memory) -> physical GPU (device: 0, name: NVIDIA GeForce RTX 2080 SUPER, pci bus id: 0000:65:00.0, compute capability: 7.5)
Model: "sequential"
_________________________________________________________________
Layer (type)                 Output Shape              Param #   
=================================================================
quant_conv2d (QuantConv2D)   (None, 130, 20, 56)       504       
_________________________________________________________________
max_pooling2d (MaxPooling2D) (None, 65, 10, 56)        0         
_________________________________________________________________
batch_normalization (BatchNo (None, 65, 10, 56)        224       
_________________________________________________________________
quant_conv2d_1 (QuantConv2D) (None, 65, 10, 56)        28224     
_________________________________________________________________
max_pooling2d_1 (MaxPooling2 (None, 32, 5, 56)         0         
_________________________________________________________________
batch_normalization_1 (Batch (None, 32, 5, 56)         224       
_________________________________________________________________
quant_conv2d_2 (QuantConv2D) (None, 32, 5, 56)         28224     
_________________________________________________________________
max_pooling2d_2 (MaxPooling2 (None, 16, 2, 56)         0         
_________________________________________________________________
batch_normalization_2 (Batch (None, 16, 2, 56)         224       
_________________________________________________________________
flatten (Flatten)            (None, 1792)              0         
_________________________________________________________________
quant_dense (QuantDense)     (None, 384)               688128    
_________________________________________________________________
batch_normalization_3 (Batch (None, 384)               1536      
_________________________________________________________________
quant_dense_1 (QuantDense)   (None, 384)               147456    
_________________________________________________________________
batch_normalization_4 (Batch (None, 384)               1536      
_________________________________________________________________
quant_dense_2 (QuantDense)   (None, 8)                 3072      
=================================================================
Total params: 899,352
Trainable params: 897,480
Non-trainable params: 1,872
_________________________________________________________________
/home/ndewinter/.local/lib/python3.6/site-packages/sklearn/utils/validation.py:72: FutureWarning: Pass classes=[0 1 2 3 4 5 6 7], y=[7 7 7 ... 3 3 0] as keyword args. From version 1.0 (renaming of 0.25) passing these as positional arguments will result in an error
…
2021-12-14 16:37:35.314473: I tensorflow/core/common_runtime/gpu/gpu_device.cc:1118] 0:   N 
2021-12-14 16:37:35.314747: I tensorflow/core/common_runtime/gpu/gpu_device.cc:1244] Created TensorFlow device (/job:localhost/replica:0/task:0/device:GPU:0 with 7472 MB memory) -> physical GPU (device: 0, name: NVIDIA GeForce RTX 2080 SUPER, pci bus id: 0000:65:00.0, compute capability: 7.5)
Model: "sequential"
_________________________________________________________________
Layer (type)                 Output Shape              Param #   
=================================================================
quant_conv2d (QuantConv2D)   (None, 130, 20, 56)       504       
_________________________________________________________________
max_pooling2d (MaxPooling2D) (None, 65, 10, 56)        0         
_________________________________________________________________
batch_normalization (BatchNo (None, 65, 10, 56)        224       
_________________________________________________________________
quant_conv2d_1 (QuantConv2D) (None, 65, 10, 56)        28224     
_________________________________________________________________
max_pooling2d_1 (MaxPooling2 (None, 32, 5, 56)         0         
_________________________________________________________________
batch_normalization_1 (Batch (None, 32, 5, 56)         224       
_________________________________________________________________
quant_conv2d_2 (QuantConv2D) (None, 32, 5, 56)         28224     
_________________________________________________________________
max_pooling2d_2 (MaxPooling2 (None, 16, 2, 56)         0         
_________________________________________________________________
batch_normalization_2 (Batch (None, 16, 2, 56)         224       
_________________________________________________________________
flatten (Flatten)            (None, 1792)              0         
_________________________________________________________________
quant_dense (QuantDense)     (None, 384)               688128    
_________________________________________________________________
batch_normalization_3 (Batch (None, 384)               1536      
_________________________________________________________________
quant_dense_1 (QuantDense)   (None, 384)               147456    
_________________________________________________________________
batch_normalization_4 (Batch (None, 384)               1536      
_________________________________________________________________
quant_dense_2 (QuantDense)   (None, 8)                 3072      
_________________________________________________________________
batch_normalization_5 (Batch (None, 8)                 32        
_________________________________________________________________
activation (Activation)      (None, 8)                 0         
=================================================================
Total params: 899,384
Trainable params: 897,496
Non-trainable params: 1,888
_________________________________________________________________
/home/ndewinter/.local/lib/python3.6/site-packages/sklearn/utils/validation.py:72: FutureWarning: Pass classes=[0 1 2 3 4 5 6 7], y=[7 7 7 ... 3 3 3] as keyword args. From version 1.0 (renaming of 0.25) passing these as positional arguments will result in an error
…
