…
2022-02-04 11:50:40.057775: I tensorflow/core/common_runtime/gpu/gpu_device.cc:1244] Created TensorFlow device (/job:localhost/replica:0/task:0/device:GPU:0 with 7472 MB memory) -> physical GPU (device: 0, name: NVIDIA GeForce RTX 2080 SUPER, pci bus id: 0000:65:00.0, compute capability: 7.5)
Model: "binary_resnet_e_18"
__________________________________________________________________________________________________
Layer (type)                    Output Shape         Param #     Connected to                     
==================================================================================================
input_1 (InputLayer)            [(None, 130, 20, 1)] 0                                            
__________________________________________________________________________________________________
conv2d (Conv2D)                 (None, 65, 10, 64)   3136        input_1[0][0]                    
__________________________________________________________________________________________________
batch_normalization_6 (BatchNor (None, 65, 10, 64)   256         conv2d[0][0]                     
__________________________________________________________________________________________________
activation_1 (Activation)       (None, 65, 10, 64)   0           batch_normalization_6[0][0]      
__________________________________________________________________________________________________
dropout (Dropout)               (None, 65, 10, 64)   0           activation_1[0][0]               
__________________________________________________________________________________________________
max_pooling2d_3 (MaxPooling2D)  (None, 33, 5, 64)    0           dropout[0][0]                    
__________________________________________________________________________________________________
batch_normalization_7 (BatchNor (None, 33, 5, 64)    256         max_pooling2d_3[0][0]            
__________________________________________________________________________________________________
quant_conv2d_3 (QuantConv2D)    (None, 33, 5, 64)    36864       batch_normalization_7[0][0]      
__________________________________________________________________________________________________
batch_normalization_8 (BatchNor (None, 33, 5, 64)    256         quant_conv2d_3[0][0]             
__________________________________________________________________________________________________
add (Add)                       (None, 33, 5, 64)    0           batch_normalization_8[0][0]      
                                                                 batch_normalization_7[0][0]      
__________________________________________________________________________________________________
quant_conv2d_4 (QuantConv2D)    (None, 33, 5, 64)    36864       add[0][0]                        
__________________________________________________________________________________________________
batch_normalization_9 (BatchNor (None, 33, 5, 64)    256         quant_conv2d_4[0][0]             
__________________________________________________________________________________________________
add_1 (Add)                     (None, 33, 5, 64)    0           batch_normalization_9[0][0]      
                                                                 add[0][0]                        
__________________________________________________________________________________________________
quant_conv2d_5 (QuantConv2D)    (None, 33, 5, 64)    36864       add_1[0][0]                      
__________________________________________________________________________________________________
batch_normalization_10 (BatchNo (None, 33, 5, 64)    256         quant_conv2d_5[0][0]             
__________________________________________________________________________________________________
add_2 (Add)                     (None, 33, 5, 64)    0           batch_normalization_10[0][0]     
                                                                 add_1[0][0]                      
__________________________________________________________________________________________________
quant_conv2d_6 (QuantConv2D)    (None, 33, 5, 64)    36864       add_2[0][0]                      
__________________________________________________________________________________________________
batch_normalization_11 (BatchNo (None, 33, 5, 64)    256         quant_conv2d_6[0][0]             
__________________________________________________________________________________________________
add_3 (Add)                     (None, 33, 5, 64)    0           batch_normalization_11[0][0]     
                                                                 add_2[0][0]                      
__________________________________________________________________________________________________
average_pooling2d (AveragePooli (None, 17, 3, 64)    0           add_3[0][0]                      
__________________________________________________________________________________________________
quant_conv2d_7 (QuantConv2D)    (None, 17, 3, 128)   73728       add_3[0][0]                      
__________________________________________________________________________________________________
conv2d_1 (Conv2D)               (None, 17, 3, 128)   8192        average_pooling2d[0][0]          
__________________________________________________________________________________________________
batch_normalization_13 (BatchNo (None, 17, 3, 128)   512         quant_conv2d_7[0][0]             
__________________________________________________________________________________________________
batch_normalization_12 (BatchNo (None, 17, 3, 128)   512         conv2d_1[0][0]                   
__________________________________________________________________________________________________
add_4 (Add)                     (None, 17, 3, 128)   0           batch_normalization_13[0][0]     
                                                                 batch_normalization_12[0][0]     
__________________________________________________________________________________________________
quant_conv2d_8 (QuantConv2D)    (None, 17, 3, 128)   147456      add_4[0][0]                      
__________________________________________________________________________________________________
batch_normalization_14 (BatchNo (None, 17, 3, 128)   512         quant_conv2d_8[0][0]             
__________________________________________________________________________________________________
add_5 (Add)                     (None, 17, 3, 128)   0           batch_normalization_14[0][0]     
                                                                 add_4[0][0]                      
__________________________________________________________________________________________________
quant_conv2d_9 (QuantConv2D)    (None, 17, 3, 128)   147456      add_5[0][0]                      
__________________________________________________________________________________________________
batch_normalization_15 (BatchNo (None, 17, 3, 128)   512         quant_conv2d_9[0][0]             
__________________________________________________________________________________________________
add_6 (Add)                     (None, 17, 3, 128)   0           batch_normalization_15[0][0]     
                                                                 add_5[0][0]                      
__________________________________________________________________________________________________
quant_conv2d_10 (QuantConv2D)   (None, 17, 3, 128)   147456      add_6[0][0]                      
__________________________________________________________________________________________________
batch_normalization_16 (BatchNo (None, 17, 3, 128)   512         quant_conv2d_10[0][0]            
__________________________________________________________________________________________________
add_7 (Add)                     (None, 17, 3, 128)   0           batch_normalization_16[0][0]     
                                                                 add_6[0][0]                      
__________________________________________________________________________________________________
average_pooling2d_1 (AveragePoo (None, 9, 2, 128)    0           add_7[0][0]                      
__________________________________________________________________________________________________
quant_conv2d_11 (QuantConv2D)   (None, 9, 2, 256)    294912      add_7[0][0]                      
__________________________________________________________________________________________________
conv2d_2 (Conv2D)               (None, 9, 2, 256)    32768       average_pooling2d_1[0][0]        
__________________________________________________________________________________________________
batch_normalization_18 (BatchNo (None, 9, 2, 256)    1024        quant_conv2d_11[0][0]            
__________________________________________________________________________________________________
batch_normalization_17 (BatchNo (None, 9, 2, 256)    1024        conv2d_2[0][0]                   
__________________________________________________________________________________________________
add_8 (Add)                     (None, 9, 2, 256)    0           batch_normalization_18[0][0]     
                                                                 batch_normalization_17[0][0]     
__________________________________________________________________________________________________
quant_conv2d_12 (QuantConv2D)   (None, 9, 2, 256)    589824      add_8[0][0]                      
__________________________________________________________________________________________________
batch_normalization_19 (BatchNo (None, 9, 2, 256)    1024        quant_conv2d_12[0][0]            
__________________________________________________________________________________________________
add_9 (Add)                     (None, 9, 2, 256)    0           batch_normalization_19[0][0]     
                                                                 add_8[0][0]                      
__________________________________________________________________________________________________
quant_conv2d_13 (QuantConv2D)   (None, 9, 2, 256)    589824      add_9[0][0]                      
__________________________________________________________________________________________________
batch_normalization_20 (BatchNo (None, 9, 2, 256)    1024        quant_conv2d_13[0][0]            
__________________________________________________________________________________________________
add_10 (Add)                    (None, 9, 2, 256)    0           batch_normalization_20[0][0]     
                                                                 add_9[0][0]                      
__________________________________________________________________________________________________
quant_conv2d_14 (QuantConv2D)   (None, 9, 2, 256)    589824      add_10[0][0]                     
__________________________________________________________________________________________________
batch_normalization_21 (BatchNo (None, 9, 2, 256)    1024        quant_conv2d_14[0][0]            
__________________________________________________________________________________________________
add_11 (Add)                    (None, 9, 2, 256)    0           batch_normalization_21[0][0]     
                                                                 add_10[0][0]                     
__________________________________________________________________________________________________
average_pooling2d_2 (AveragePoo (None, 5, 1, 256)    0           add_11[0][0]                     
__________________________________________________________________________________________________
quant_conv2d_15 (QuantConv2D)   (None, 5, 1, 512)    1179648     add_11[0][0]                     
__________________________________________________________________________________________________
conv2d_3 (Conv2D)               (None, 5, 1, 512)    131072      average_pooling2d_2[0][0]        
__________________________________________________________________________________________________
batch_normalization_23 (BatchNo (None, 5, 1, 512)    2048        quant_conv2d_15[0][0]            
__________________________________________________________________________________________________
batch_normalization_22 (BatchNo (None, 5, 1, 512)    2048        conv2d_3[0][0]                   
__________________________________________________________________________________________________
add_12 (Add)                    (None, 5, 1, 512)    0           batch_normalization_23[0][0]     
                                                                 batch_normalization_22[0][0]     
__________________________________________________________________________________________________
quant_conv2d_16 (QuantConv2D)   (None, 5, 1, 512)    2359296     add_12[0][0]                     
__________________________________________________________________________________________________
batch_normalization_24 (BatchNo (None, 5, 1, 512)    2048        quant_conv2d_16[0][0]            
__________________________________________________________________________________________________
add_13 (Add)                    (None, 5, 1, 512)    0           batch_normalization_24[0][0]     
                                                                 add_12[0][0]                     
__________________________________________________________________________________________________
quant_conv2d_17 (QuantConv2D)   (None, 5, 1, 512)    2359296     add_13[0][0]                     
__________________________________________________________________________________________________
batch_normalization_25 (BatchNo (None, 5, 1, 512)    2048        quant_conv2d_17[0][0]            
__________________________________________________________________________________________________
add_14 (Add)                    (None, 5, 1, 512)    0           batch_normalization_25[0][0]     
                                                                 add_13[0][0]                     
__________________________________________________________________________________________________
quant_conv2d_18 (QuantConv2D)   (None, 5, 1, 512)    2359296     add_14[0][0]                     
__________________________________________________________________________________________________
batch_normalization_26 (BatchNo (None, 5, 1, 512)    2048        quant_conv2d_18[0][0]            
__________________________________________________________________________________________________
add_15 (Add)                    (None, 5, 1, 512)    0           batch_normalization_26[0][0]     
                                                                 add_14[0][0]                     
__________________________________________________________________________________________________
activation_2 (Activation)       (None, 5, 1, 512)    0           add_15[0][0]                     
__________________________________________________________________________________________________
average_pooling2d_3 (AveragePoo (None, 1, 1, 512)    0           activation_2[0][0]               
__________________________________________________________________________________________________
flatten_1 (Flatten)             (None, 512)          0           average_pooling2d_3[0][0]        
__________________________________________________________________________________________________
dense (Dense)                   (None, 8)            4104        flatten_1[0][0]                  
__________________________________________________________________________________________________
activation_3 (Activation)       (None, 8)            0           dense[0][0]                      
==================================================================================================
Total params: 11,184,200
Trainable params: 11,174,472
Non-trainable params: 9,728
__________________________________________________________________________________________________
/home/ndewinter/.local/lib/python3.6/site-packages/sklearn/utils/validation.py:72: FutureWarning: Pass classes=[0 1 2 3 4 5 6 7], y=[7 7 7 ... 3 3 0] as keyword args. From version 1.0 (renaming of 0.25) passing these as positional arguments will result in an error
…
