…
2021-12-15 18:20:49.715845: I tensorflow/core/common_runtime/gpu/gpu_device.cc:1118] 0:   N 
2021-12-15 18:20:49.716123: I tensorflow/core/common_runtime/gpu/gpu_device.cc:1244] Created TensorFlow device (/job:localhost/replica:0/task:0/device:GPU:0 with 7472 MB memory) -> physical GPU (device: 0, name: NVIDIA GeForce RTX 2080 SUPER, pci bus id: 0000:65:00.0, compute capability: 7.5)
Model: "sequential"
_________________________________________________________________
Layer (type)                 Output Shape              Param #   
=================================================================
quant_conv2d (QuantConv2D)   (None, 130, 20, 48)       432       
_________________________________________________________________
max_pooling2d (MaxPooling2D) (None, 65, 10, 48)        0         
_________________________________________________________________
batch_normalization (BatchNo (None, 65, 10, 48)        192       
_________________________________________________________________
quant_conv2d_1 (QuantConv2D) (None, 65, 10, 48)        20736     
_________________________________________________________________
max_pooling2d_1 (MaxPooling2 (None, 32, 5, 48)         0         
_________________________________________________________________
batch_normalization_1 (Batch (None, 32, 5, 48)         192       
_________________________________________________________________
quant_conv2d_2 (QuantConv2D) (None, 32, 5, 48)         20736     
_________________________________________________________________
max_pooling2d_2 (MaxPooling2 (None, 16, 2, 48)         0         
_________________________________________________________________
batch_normalization_2 (Batch (None, 16, 2, 48)         192       
_________________________________________________________________
quant_conv2d_3 (QuantConv2D) (None, 16, 2, 48)         20736     
_________________________________________________________________
max_pooling2d_3 (MaxPooling2 (None, 8, 1, 48)          0         
_________________________________________________________________
batch_normalization_3 (Batch (None, 8, 1, 48)          192       
_________________________________________________________________
flatten (Flatten)            (None, 384)               0         
_________________________________________________________________
quant_dense (QuantDense)     (None, 384)               147456    
_________________________________________________________________
batch_normalization_4 (Batch (None, 384)               1536      
_________________________________________________________________
quant_dense_1 (QuantDense)   (None, 2)                 768       
_________________________________________________________________
batch_normalization_5 (Batch (None, 2)                 8         
_________________________________________________________________
activation (Activation)      (None, 2)                 0         
=================================================================
Total params: 213,176
Trainable params: 212,020
Non-trainable params: 1,156
_________________________________________________________________
/home/ndewinter/.local/lib/python3.6/site-packages/sklearn/utils/validation.py:72: FutureWarning: Pass classes=[0. 1.], y=[0. 1. 1. ... 1. 1. 0.] as keyword args. From version 1.0 (renaming of 0.25) passing these as positional arguments will result in an error
…
CNN params=  {'nb_conv_layers_1': 3, 'nb_dense_layers_1': 1, 'nb_filters_1': 48, 'filter_size_1': 3, 'pool_size_1': 2, 'nb_dense_nodes_1': 384, 'dropout_proba_1': 0.5, 'learn_rate_adam_1': 0.00031622776601683794, 'beta_1_1': 0.95, 'beta_2_1': 0.999, 'epsilon_1': 1e-08, 'min_delta_1': 0.005, 'patience_1': 15, 'batchsize_1': 128, 'nb_conv_layers_2': 2, 'nb_dense_layers_2': 2, 'nb_filters_2': 24, 'filter_size_2': 4, 'pool_size_2': 2, 'nb_dense_nodes_2': 320, 'dropout_proba_2': 0.6, 'learn_rate_adam_2': 0.003727593720314938, 'beta_1_2': 0.9, 'beta_2_2': 0.999, 'epsilon_2': 1e-08, 'min_delta_2': 5e-05, 'patience_2': 20, 'batchsize_2': 192}
Model: "sequential"
_________________________________________________________________
Layer (type)                 Output Shape              Param #   
=================================================================
quant_conv2d (QuantConv2D)   (None, 130, 20, 24)       384       
_________________________________________________________________
max_pooling2d (MaxPooling2D) (None, 65, 10, 24)        0         
_________________________________________________________________
batch_normalization (BatchNo (None, 65, 10, 24)        96        
_________________________________________________________________
quant_conv2d_1 (QuantConv2D) (None, 65, 10, 24)        9216      
_________________________________________________________________
max_pooling2d_1 (MaxPooling2 (None, 32, 5, 24)         0         
_________________________________________________________________
batch_normalization_1 (Batch (None, 32, 5, 24)         96        
_________________________________________________________________
quant_conv2d_2 (QuantConv2D) (None, 32, 5, 24)         9216      
_________________________________________________________________
max_pooling2d_2 (MaxPooling2 (None, 16, 2, 24)         0         
_________________________________________________________________
batch_normalization_2 (Batch (None, 16, 2, 24)         96        
_________________________________________________________________
flatten (Flatten)            (None, 768)               0         
_________________________________________________________________
quant_dense (QuantDense)     (None, 320)               245760    
_________________________________________________________________
batch_normalization_3 (Batch (None, 320)               1280      
_________________________________________________________________
quant_dense_1 (QuantDense)   (None, 320)               102400    
_________________________________________________________________
batch_normalization_4 (Batch (None, 320)               1280      
_________________________________________________________________
quant_dense_2 (QuantDense)   (None, 7)                 2240      
_________________________________________________________________
batch_normalization_5 (Batch (None, 7)                 28        
_________________________________________________________________
activation (Activation)      (None, 7)                 0         
=================================================================
Total params: 372,092
Trainable params: 370,654
Non-trainable params: 1,438
_________________________________________________________________
/home/ndewinter/.local/lib/python3.6/site-packages/sklearn/utils/validation.py:72: FutureWarning: Pass classes=[0 1 2 3 4 5 6], y=[6 6 6 ... 2 2 2] as keyword args. From version 1.0 (renaming of 0.25) passing these as positional arguments will result in an error
…
